Emotion/synaptic_weight.npy (npy, 3328 bytes, 1 tensors)

array f8 [400, 1]
00000000: 121f 6559 9734 e7bf 885f 3444 bb2f d63f
00000010: eceb dc95 0658 e2bf 22ee 5c0b bbcf e13f
00000020: 40f0 4e9a 1927 d5bf 04a6 a64c b794 e9bf
00000030: 822d 30e5 0277 e5bf ee5a 4c32 2b73 e2bf
00000040: cb60 0d64 09d3 d8bf 686a bbda c488 e4bf
00000050: 7a9d eff2 26e7 e6bf cfdb 4e2b 90b4 d13f
00000060: 3462 6b26 3567 e5bf 2afe b21a 962b e83f
00000070: e075 df28 3ddd edbf b739 f4d4 fb96 c63f
00000080: 7472 d4d7 62ef eebf 8889 24f1 25c8 ed3f
00000090: 0080 3e02 6092 91bf 14c6 ecdd 5be5 db3f
000000a0: 0064 32c1 3b95 e9bf d876 3c90 92ee cbbf
000000b0: 7c23 1a36 a211 eebf dcc8 1ead 063d d23f
000000c0: c03d 49db e4f4 c53f 6854 c979 c6cb e1bf
000000d0: 73a1 a141 0180 eebf 63f2 84a6 61b3 d03f
000000e0: 76f9 1b89 a661 cabf 1640 33e5 785b cd3f
000000f0: 4a98 2ef9 ea3a abbf 1111 f60f d773 d3bf
00000100: 0210 e414 967b e93f 622d f339 3e63 b23f
00000110: 0f87 778d 1ed6 e1bf 5819 db05 8692 e2bf
00000120: 4fb7 eaf0 f6d6 dfbf e23e 0f0b 2793 e5bf
00000130: 3e06 d186 3a38 e03f 84ec c317 fbb9 eabf
00000140: caa2 93ad a58c ee3f 80e4 8ca4 7840 893f
00000150: 60c8 0519 8124 a93f 6019 d382 988a e73f
00000160: dc63 194d d8e6 ebbf 76c8 12a9 444b d33f
00000170: 84ef 8a46 23fd e33f 9c36 4dd9 58ed c5bf
00000180: a3bd bf18 e02d f13f 7186 833e 1d5c d13f
00000190: f95c 4e09 ce46 babf e873 b1dc b63a bebf
000001a0: edff 7aad 35e2 debf 10b5 88e3 f022 b1bf
000001b0: a581 6716 149d eabf 3db6 1ea6 e9cb f6bf
000001c0: 10f3 8aa5 f64e e4bf 430c f64a 6f5c cb3f
000001d0: e8ae a879 8ecd e4bf 9047 3e79 10c1 c7bf
000001e0: 604e 9268 ed16 c3bf ee74 805c bb80 ebbf
000001f0: fd6c f821 bbfa e1bf 6e5b 5280 2f2c e03f
00000200: 88a8 c15e f9d0 c73f a063 74c4 0f8c 763f
00000210: 0b1b c868 45e4 e3bf f6b2 50c2 5fd7 e3bf
00000220: 55ba 306c c0e7 debf 4c2a 7fe4 6b3f ba3f
00000230: e821 907c 7ca4 debf 3aac 8a1c 67ba b33f
00000240: f594 f122 e7af b8bf 7d4a e3f1 c250 d3bf
00000250: 62de 19e0 6bdc eabf b05d 270d a1a8 c0bf
00000260: d0e5 d8da c0df e33f a02f a3a8 5c08 c23f
00000270: c6d8 51b9 9b0e e6bf 3013 6544 a1a4 b53f
00000280: 44b8 aa1c 9a73 de3f 2c68 5bc5 f38a dc3f
00000290: 6366 3bef b2c9 c8bf 4f27 ce59 3d36 e33f
000002a0: c865 ed67 015f e1bf c0e9 8495 0b16 a7bf
000002b0: eec2 e385 86d7 d6bf e18b dac9 906a f03f
000002c0: fb19 01fd 319c b1bf a8f7 cded 1563 f23f
000002d0: 7673 1809 1b1e d33f a062 67b6 a9d8 e73f
000002e0: ec21 4274 9643 e5bf b2e6 609b c6af f0bf
000002f0: f84b 5bc3 6c72 de3f 6b90 7010 1a2d c13f
00000300: 0d33 5671 c1c3 ee3f e208 58e5 9a5e ee3f
00000310: 88be 8772 65cc e9bf 28d6 f80e 838b c73f
00000320: 7a95 1338 3d69 eb3f 0a55 b04d 1fae e7bf
00000330: e048 3944 fd15 ac3f c659 64e5 7836 d7bf
00000340: 7653 15e4 6d3b 933f e419 a67b 43f1 cbbf
00000350: 9da6 9d71 70ad e0bf 4fdc 6441 9640 e9bf
00000360: d310 94bf 9a77 e43f 50b6 bf11 6dfb d1bf
00000370: c28c 2c92 02f2 e33f 9eae 0b00 f491 f0bf
00000380: 3526 1ffe ffca d7bf cd15 9ebb ccd6 d23f
00000390: b1f4 8e13 0041 e13f 9fe6 b8d1 712f e73f
000003a0: e9fc fba1 3808 f23f f637 5d07 5879 a5bf
000003b0: 38c0 0672 c0f4 c1bf a45f ac0c 5dbe e13f
000003c0: 9ca5 ba46 8eae ab3f 541b a68f b285 ebbf
000003d0: be54 539d 536c f03f 526b 73d8 667d e5bf
000003e0: 1ab1 76c7 efbc e33f 62c7 533a ceed ddbf
000003f0: 3a46 c9fb c438 e63f ce21 3b2a 595d e7bf
00000400: 00d6 f5ea 9393 e3bf 30fe bd0e bb63 e03f
00000410: dacc 0a68 783b d43f 5f53 851a 241d e2bf
00000420: 884f edc2 49ae cc3f fae5 ee92 bdd9 d93f
00000430: 449f 75b3 c42b ae3f c835 3e74 3dc9 c23f
00000440: 5b37 8e18 0989 d23f efbd f33a 2533 dbbf
00000450: 0b56 dc65 67a2 e4bf 5eca 66a0 a76a e93f
00000460: 87ab 3ee3 c472 da3f cc29 22bf 174f d6bf
00000470: 580d e08f 04f4 c73f 8696 258f 99f1 e73f
00000480: f1d0 76d5 9443 e03f 8662 3bbf 3f29 c7bf
00000490: 03a3 6e3e 417e d0bf ac78 d863 659b b23f
000004a0: ed17 9225 084e c9bf 8674 4367 ea5e bfbf
000004b0: 2929 1ccb 77bd f8bf b096 9ec9 13a2 dbbf
000004c0: b90d c206 819e ecbf fc3c ce1b 55a5 c63f
000004d0: d787 6c01 1abb f73f eaa3 0c62 fc20 d93f
000004e0: c481 d7ae 2ef6 933f 5b9f 53ce 7afd ebbf
000004f0: ab7b a460 9047 e8bf ecd6 a4fb 2ca9 da3f
00000500: c82e e3ff 794b b6bf d35f 9ac5 b248 d03f
00000510: 6c41 ffaf 40ff 993f 885d aa05 6f8c e03f
00000520: e931 0e3b 6b45 bf3f a9bf 73d3 ffb9 de3f
00000530: f295 1847 dd87 ecbf 0001 69b0 e0c0 83bf
00000540: eab5 a6af a9f7 e9bf 624b 9278 7d3d d9bf
00000550: 7250 92ca 5bf1 f5bf 266d b271 f558 eabf
00000560: e35c a405 c373 e53f f0d6 1a7b a89a db3f
00000570: b77b b6bd ac7e f03f ab77 24bf 800a c1bf
00000580: 71d7 d79b 7beb e53f c51e 00d7 6a29 d9bf
00000590: df35 51c2 7233 f03f a39c f89c 8911 e3bf
000005a0: f651 7efb 52b5 d7bf 8cc7 ac58 765c e23f
000005b0: 042c 19e4 7a14 d93f 7a51 5980 1d11 d3bf
000005c0: 428a b9a0 54cf e33f 96cd 3d44 94e0 db3f
000005d0: b71c b0b4 5b15 f13f d259 bf42 6123 d3bf
000005e0: b3a4 2c4c 30e4 abbf 39e1 b23b a2f7 9cbf
000005f0: 8dd6 8170 7d7c c53f 8866 b667 9fba c0bf
00000600: 3fc2 1a45 3479 bcbf 9429 bf0e 4da2 c83f
00000610: 44bd f07c 9dc8 b6bf 92de b494 e0bb f53f
00000620: 7c2c 9ec6 f7bc c8bf 8c6f ac33 2c68 c2bf
00000630: c67a 09d3 fd6f f03f 0199 e551 f673 d73f
00000640: 4a64 1b0b a170 d7bf d004 0ab5 d97d c43f
00000650: f8fa 9881 a656 d3bf ebfb 22ca 2a0e e13f
00000660: d1c9 380b 7e21 e0bf 5442 321d fff6 b03f
00000670: fe51 c086 0f89 bf3f 1cfc 6446 4a3b e53f
00000680: 4a0a aa20 3aa2 d0bf 2164 d214 6485 d3bf
00000690: ab49 b1e7 065a d23f e675 734a c412 65bf
000006a0: d8bb 1a93 e045 c4bf f47a 233b 2657 953f
000006b0: 8c73 a61c e59b dc3f 866f 6a73 2ace c73f
000006c0: 2d0c ec0f 43b6 cf3f 6150 c367 ab87 e1bf
000006d0: 9ae2 e605 f5fb cfbf 4696 909a 47b1 ccbf
000006e0: 071b 9f4c 4081 f0bf fd53 a198 8e4c afbf
000006f0: 5ce1 49ad c26b cbbf 4cea 939f 62eb d3bf
00000700: d756 0664 66f9 e0bf 28b5 e670 d62d e33f
00000710: ca8b f829 0458 e6bf 44a2 5eb7 767f eebf
00000720: a34c 33c8 7ad5 f1bf 778a a566 cf78 e9bf
00000730: 6e17 5e73 e58d c6bf 8b8c e959 326a e23f
00000740: a15b 3655 9b36 e23f b80d c206 9109 d2bf
00000750: 4ead 1af0 128d e2bf 787c e51b c2df f73f
00000760: 3495 e660 7d3a e93f bb7a 2ef0 0a43 f53f
00000770: 0080 6d45 eb31 ecbf d9c1 453d ac99 e53f
00000780: df7c 95fd d68b eabf fcea eaca 3b73 d6bf
00000790: 6a47 0cff 6907 c63f 20cd 67e6 c28d e23f
000007a0: d678 4930 0a82 e33f 8c2c 5d07 ed9d d23f
000007b0: 2e12 a909 0558 e73f 461b 7a1a b61f eb3f
000007c0: 36a6 84a2 652f d53f e43d 4079 59fe dcbf
000007d0: 105d 45f5 4657 e93f bc4b 6b34 5340 973f
000007e0: 6998 1fde cc5a ebbf 8541 db4f c08b e13f
000007f0: b288 141f 2fa7 d93f ef95 b2b1 bad7 d73f
-0.7251698251720617 0.34666330013850954 -0.5732453276644924 0.5566077444013369 -0.33051147526908053 -0.7994038102235099 -0.670777747758095 -0.5765586836231174
-0.3878806569168886 -0.6416954300032787 -0.7157168145030675 0.27664570073414735 -0.668848586118719 0.7553205987423486 -0.9332567022608451 0.17648265741486366
-0.966721936743467 0.9306821546381778 -0.017159938942882036 0.4358739535556151 -0.7994669698119878 -0.2182181553152336 -0.9396525437051504 0.28497473627352377
0.17153607089356449 -0.5561249140397537 -0.9531255990851107 0.26094857465412796 -0.20610505766667203 0.2293540114537797 -0.05318388263485525 -0.30394531782828077
0.7963362129235068 0.07182682909767871 -0.5573876154923897 -0.58038617271158 -0.4974953987792689 -0.6742129531866932 0.5068638451704783 -0.8352027382055813
0.9546688451929068 0.012330000421217457 0.04910663061572573 0.7356684260528645 -0.8719293123095855 0.30146900664397636 0.6246506097590871 -0.17130575762205502
1.0737000433690376 0.2712472067342793 -0.10264289595794542 -0.11808340919510807 -0.48255674306346813 -0.06693940691976175 -0.8316746175369657 -1.4247833718358287
-0.634639094663358 0.21375838432513392 -0.6500923515463599 -0.1855793563850594 -0.14913718801527676 -0.8594643408465836 -0.561856809948409 0.5053937441142418
0.1860648834875216 0.0055046668924426945 -0.6216151281849717 -0.6200407786578512 -0.4828949982210465 0.10253023460897132 -0.47878944553715863 0.07706303068941703
-0.09643406489483992 -0.3018042909799659 -0.8394069077466606 -0.1301461519458207 0.621063640056656 0.1408801864075686 -0.6892832393193877 0.08454330367846974
0.4758057861280387 0.4459809710803053 -0.19365536385776058 0.6003710512170332 -0.5428473501044033 -0.04509006691155859 -0.35690463137784334 1.0260169873151812
-0.06878960062849863 1.1491908349266655 0.2987125004599912 0.7451981127333802 -0.6645004530592451 -1.042914015719742 0.47573393895908067 0.13418889811248688
0.9613959516151184 0.9490484694836392 -0.806200717632195 0.18394506674819522 0.8565965743297703 -0.7400051610335663 0.05485526521501227 -0.3626997223049354
0.018781392141437668 -0.21830028092899945 -0.5211717814501814 -0.7891341473795225 0.6396001569524067 -0.2809708283738006 0.6232922415696509 -1.0356330873282
-0.37176513496942515 0.29436033556006863 0.5391846067428984 0.724541577924544 1.1270071342003638 -0.04194140519994953 -0.14028173034376024 0.5544877288366377
0.05406612981216627 -0.8600704961435022 1.0264469285514646 -0.6715578296237743 0.6168135543607918 -0.4676395005800399 0.6944298665714037 -0.7301450562309186
-0.6117648686474126 0.5121741569454965 0.31612978134508085 -0.5660572545990411 0.22406885164184254 0.4039148268599032 0.0589276761118627 0.1467663590996564
0.28961398504258334 -0.42499666935961405 -0.6448246945826112 0.7942693837015431 0.4132549494922206 -0.34857743897796634 0.18713433289677073 0.74824216802945
0.5082496804448323 -0.180946319937693 -0.25770598503963543 0.0726836556209231 -0.1976938422632765 -0.12254204770165886 -1.5462568220123762 -0.4317674130382825
-0.8943486339562049 0.1769205461282367 1.4831790977118453 0.392638297797531 0.01949379865789226 -0.8746923475091352 -0.7587358367489875 0.41657566618537945
-0.08708918092014095 0.25443715378923776 0.025387774221429835 0.5171427832273574 0.12215299789222168 0.48010249757407536 -0.8915850056261532 -0.009645228751765433
-0.8114822798431167 -0.3943780591445628 -1.3714254296255857 -0.8233592243808843 0.6703810796924724 0.43131458303410763 1.0309264574677692 -0.1331330235779523
0.6849954646884112 -0.39315291401042557 1.0125606146351556 -0.5958908143847065 -0.3704421478262526 0.5737869007045773 0.3918750026247724 -0.29791963132927146
0.6190589083819946 0.43558222450448036 1.067714410602816 -0.29903441923434315 -0.054475316332465516 -0.028288397687647324 0.16786163323893213 -0.13069527210318577
-0.1112244290077422 0.19245303363852584 -0.08899864483168068 1.3583684738968356 -0.19326684187067034 -0.14380409739612465 1.0273416751512499 0.366452770211609
-0.3662493332354343 0.1600906499843746 -0.30216372161878224 0.5329793880445072 -0.5040884226967198 0.06626886809159177 0.12318512954545466 0.6634875655071286
-0.2599015540110129 -0.3050165370310101 0.2867448103544585 -0.002572425251499355 -0.15838248427232204 0.020840260848554018 0.44701507375594285 0.18597918162856447
0.24774969365543723 -0.5478112246150993 -0.24987662113359904 -0.22416014716252358 -1.0315554612186035 -0.06113095868264649 -0.21422608815533806 -0.31124177535790376
-0.5304443315132755 0.5993454175092312 -0.6982441730254945 -0.9530595380247822 -1.1146190471961652 -0.7959973339860217 -0.17620533116513165 0.575463462457621
0.5691658653548651 -0.281833893394118 -0.579720944360284 1.4921284761146847 0.7883898632614206 1.3288678533642002 -0.8810936313639104 0.6750088879326156
-0.829570288926245 -0.35078329864670343 0.1721012587882414 0.5798048496348294 0.6096239989381285 0.29088903159272017 0.7294945896797509 0.8476210133675088
0.33101788397707155 -0.45302426186478173 0.7919039526413219 0.022706317972573706 -0.854834016642383 0.5483094749161387 0.4008291057126697 0.3725420699432495
