Emotion/synaptic_weight.npy (npy, 3328 bytes, 1 tensors)

array f8 [400, 1]
0	0xbfe7349759651f12	-0.7251698251720617
1	0x3fd62fbb44345f88	0.34666330013850954
2	0xbfe2580695dcebec	-0.5732453276644924
3	0x3fe1cfbb0b5cee22	0.5566077444013369
4	0xbfd527199a4ef040	-0.33051147526908053
5	0xbfe994b74ca6a604	-0.7994038102235099
6	0xbfe57702e5302d82	-0.670777747758095
7	0xbfe2732b324c5aee	-0.5765586836231174
8	0xbfd8d309640d60cb	-0.3878806569168886
9	0xbfe488c4dabb6a68	-0.6416954300032787
10	0xbfe6e726f2ef9d7a	-0.7157168145030675
11	0x3fd1b4902b4edbcf	0.27664570073414735
12	0xbfe56735266b6234	-0.668848586118719
13	0x3fe82b961ab2fe2a	0.7553205987423486
14	0xbfeddd3d28df75e0	-0.9332567022608451
15	0x3fc696fbd4f439b7	0.17648265741486366
16	0xbfeeef62d7d47274	-0.966721936743467
17	0x3fedc825f1248988	0.9306821546381778
18	0xbf919260023e8000	-0.017159938942882036
19	0x3fdbe55bddecc614	0.4358739535556151
20	0xbfe9953bc1326400	-0.7994669698119878
21	0xbfcbee92903c76d8	-0.2182181553152336
22	0xbfee11a2361a237c	-0.9396525437051504
23	0x3fd23d06ad1ec8dc	0.28497473627352377
24	0x3fc5f4e4db493dc0	0.17153607089356449
25	0xbfe1cbc679c95468	-0.5561249140397537
26	0xbfee800141a1a173	-0.9531255990851107
27	0x3fd0b361a684f263	0.26094857465412796
28	0xbfca61a6891bf976	-0.20610505766667203
29	0x3fcd5b78e5334016	0.2293540114537797
30	0xbfab3aeaf92e984a	-0.05318388263485525
31	0xbfd373d70ff61111	-0.30394531782828077
32	0x3fe97b9614e41002	0.7963362129235068
33	0x3fb2633e39f32d62	0.07182682909767871
34	0xbfe1d61e8d77870f	-0.5573876154923897
35	0xbfe2928605db1958	-0.58038617271158
36	0xbfdfd6f6f0eab74f	-0.4974953987792689
37	0xbfe593270b0f3ee2	-0.6742129531866932
38	0x3fe0383a86d1063e	0.5068638451704783
39	0xbfeab9fb17c3ec84	-0.8352027382055813
40	0x3fee8ca5ad93a2ca	0.9546688451929068
41	0x3f894078a48ce480	0.012330000421217457
42	0x3fa924811905c860	0.04910663061572573
43	0x3fe78a9882d31960	0.7356684260528645
44	0xbfebe6d84d1963dc	-0.8719293123095855
45	0x3fd34b44a912c876	0.30146900664397636
46	0x3fe3fd23468aef84	0.6246506097590871
47	0xbfc5ed58d94d369c	-0.17130575762205502
48	0x3ff12de018bfbda3	1.0737000433690376
49	0x3fd15c1d3e838671	0.2712472067342793
50	0xbfba46ce094e5cf9	-0.10264289595794542
51	0xbfbe3ab6dcb173e8	-0.11808340919510807
52	0xbfdee235ad7affed	-0.48255674306346813
53	0xbfb122f0e388b510	-0.06693940691976175
54	0xbfea9d14166781a5	-0.8316746175369657
55	0xbff6cbe9a61eb63d	-1.4247833718358287
56	0xbfe44ef6a58af310	-0.634639094663358
57	0x3fcb5c6f4af60c43	0.21375838432513392
58	0xbfe4cd8e79a8aee8	-0.6500923515463599
59	0xbfc7c110793e4790	-0.1855793563850594
60	0xbfc316ed68924e60	-0.14913718801527676
61	0xbfeb80bb5c8074ee	-0.8594643408465836
62	0xbfe1fabb21f86cfd	-0.561856809948409
63	0x3fe02c2f80525b6e	0.5053937441142418
64	0x3fc7d0f95ec1a888	0.1860648834875216
65	0x3f768c0fc47463a0	0.0055046668924426945
66	0xbfe8ff22e3ef9387	-0.7811445667144746
67	0xbfe8f23d3d782b72	-0.7795702171873542
68	0xbfe5a7619d6bab62	-0.6766822886105326
69	0xbfb75c9f561b476c	-0.09125705578051474
70	0xbfe06ae22a73e6b0	-0.5130472973971418
71	0x3fb3ba671c8aac3a	0.07706303068941703
72	0x3f55d6b637b72bc0	0.0013329295605781638
73	0xbfca1da333e04c8f	-0.20402946503654504
74	0xbfe7bb7334204c47	-0.7416320818032397
75	0xbfc0a85f5b294e16	-0.13013832045781787
76	0x3fe3dfd1475869b6	0.6210714715446588
77	0x3fc2085ca8a32fa0	0.1408801864075686
78	0xbfe60e9bb951d8c6	-0.6892832393193877
79	0x3fb5a4a144651330	0.08454330367846974
80	0x3fde739a1caab844	0.4758057861280387
81	0x3fdc8af3c55b682c	0.4459809710803053
82	0xbfc8c9b2ef3b6663	-0.19365536385776058
83	0x3fe3363d59ce274f	0.6003710512170332
84	0xbfe15f0167ed65c8	-0.5428473501044033
85	0xbfa7160b9584e9c0	-0.04509006691155859
86	0xbfd6d78685e3c2ee	-0.35690463137784334
87	0x3febba44188d9f45	0.8664875487856781
88	0xbfd0ce0f4de6e2ed	-0.2625768910179847
89	0x3fee92aa7448a117	0.9554035445371792
90	0x3fc9f1d172cbe6e3	0.20269220452592326
91	0x3fe4c6108e8e229d	0.6491778167993122
92	0xbfe2229dc8488fd1	-0.5667256271158242
93	0xbfee3e948ac83b48	-0.945139189776321
94	0x3fe25a2f0da73817	0.5735087649025016
95	0x3fc12d5bc26ea005	0.1341967296004897
96	0x3feec3d1ddd5b6f3	0.9614037831031211
97	0x3fee5e9ae55808e2	0.9490484694836392
98	0xbfe9cc657287be88	-0.806200717632195
99	0x3fc78b830ef8d628	0.18394506674819522
100	0x3feb693d3813957a	0.8565965743297703
101	0xbfe7ae1f4db0550a	-0.7400051610335663
102	0xbfc1c8864c3ee6a4	-0.13893202517447378
103	0xbfe1cebdda057b1a	-0.5564870126944215
104	0x3f933b6de4155376	0.018781392141437668
105	0xbfcbf1437ba619e4	-0.21830028092899945
106	0xbfe0ad70719da69d	-0.5211717814501814
107	0xbfe940964164dc4f	-0.7891341473795225
108	0x3fe4779abf9410d3	0.6396001569524067
109	0xbfc77339259733cf	-0.18320383391838255
110	0x3fe0df696a534cbe	0.5272719456355828
111	0xbff21b385db88cab	-1.131645551774265
112	0xbfe218f0f9e35d6b	-0.5655445938709084
113	0x3fd2d6ed949d1d9a	0.29436816704807145
114	0x3fe14100138ef4b1	0.5391846067428984
115	0x3fe72f71d1b8e69f	0.724541577924544
116	0x3ff20838a1fbfce9	1.1270071342003638
117	0xbfa57958075d37f6	-0.04194140519994953
118	0xbfc1f4c07206c038	-0.14028173034376024
119	0x3fe1be5d0cac5fa4	0.5544877288366377
120	0x3fabae8e46baa59c	0.05406612981216627
121	0xbfeb85b28fa61b54	-0.8600704961435022
122	0x3feaa525d3535b44	0.8326596381619784
123	0xbfebb0e83fc6b98a	-0.8653451200132605
124	0x3fe2a44bdb4adb5e	0.5825557025008086
125	0xbfddedce3a53c762	-0.4676395005800399
126	0x3fe638c4fbc9463a	0.6944298665714037
127	0xbfe75d592a3b21ce	-0.7301450562309186
128	0xbfe072abab7bc7cb	-0.5139978741919945
129	0x3fdaa243cdc97c5b	0.41615386101142854
130	0x3fda7d69bffdf110	0.41390460728850176
131	0xbfe8509515591db1	-0.7598367135005245
132	0x3f9f042ebcf13230	0.0302893927403593
133	0x3fd9d9bd92eee5fa	0.4039148268599032
134	0x3fae2bc4b3759f44	0.0589276761118627
135	0x3fc2c93d743e35c8	0.1467663590996564
136	0x3fd28909188e375b	0.28961398504258334
137	0xbfdb33253af3bdef	-0.42499666935961405
138	0xbfe4a26765dc560b	-0.6448246945826112
139	0x3fe96aa7a066ca5e	0.7942693837015431
140	0x3fda72c4e33eab87	0.4132549494922206
141	0xbfd64f17bf2229cc	-0.34857743897796634
142	0x3fc7f4048fe00d58	0.18713433289677073
143	0x3feb1281ce9fa4bb	0.8460091624848681
144	0x3fe04394d576d0f1	0.5082496804448323
145	0xbfc7293fbf3b6286	-0.180946319937693
146	0xbfd07e413e6ea303	-0.25770598503963543
147	0x3fb29b6563d878ac	0.0726836556209231
148	0xbfb994ce4f53be36	-0.0999268478078584
149	0xbf995ea1adcc0b88	-0.02477505324624077
150	0xbff8bd6f94dc6735	-1.5462489905243733
151	0xbfe0e392a0290774	-0.5277798774843476
152	0xbff16901370aadf8	-1.088135924345691
153	0x3f91cef97982d874	0.017391107598733815
154	0x3ff7bb1a016c87d7	1.4831790977118453
155	0x3fd920fc620ca3ea	0.392638297797531
156	0x3f93f62eaed781c4	0.01949379865789226
157	0xbfebfd7ace539f5b	-0.8746923475091352
158	0xbfe8479060a47bab	-0.7587358367489875
159	0x3fdaa92cfba4d6ec	0.41657566618537945
160	0xbfb64b79ffe32ec8	-0.08708918092014095
161	0x3fd048b2c59a5fd3	0.25443715378923776
162	0xbfa29fb362d703b6	-0.03637466985265496
163	0x3fe3ad5745246bbc	0.6149097776827754
164	0x3fbf456b3b0e31e9	0.12215299789222168
165	0x3fdeb9ffd373bfa9	0.48010249757407536
166	0xbfec87dd471895f2	-0.8915850056261532
167	0x3fb68f25e5c35184	0.08812176570365265
168	0xbfe6d6c1702ca7b6	-0.7137152853876987
169	0xbfd2fb8c209f272c	-0.2966032332011419
170	0xbff5f15394528e7e	-1.3714175981375827
171	0xbff0463336431bbc	-1.0171386832823677
172	0x3fde80833ca21d56	0.47659378930298624
173	0x3fd164ed84cbe5fa	0.2717851445046048
174	0x3ff07eacbdb67bb7	1.0309264574677692
175	0xbfc10a80bf2477ab	-0.1331330235779523
176	0x3fe5eb7b9bd7d771	0.6849954646884112
177	0xbfd9296ad7001ec5	-0.39315291401042557
178	0x3ff03372c25135df	1.0125606146351556
179	0xbfe311899cf89ca3	-0.5958908143847065
180	0xbfd7b552fb7e51f6	-0.3704421478262526
181	0x3fda8331bb0a9e21	0.41425746217507436
182	0x3fc95af02ae51f2c	0.19808771223528632
183	0xbfd5426558b0fcf2	-0.33217748318925466
184	0x3fe3cf650d390e28	0.6190667398699974
185	0x3fdbe0b51d3cd563	0.4355900559924832
186	0x3ff1155bb4b01cb7	1.067714410602816
187	0xbfc9c32187967ad2	-0.20126742477892506
188	0x3fa62a53ab743e95	0.04329167812295257
189	0xbf9cf594abc26464	-0.02828056619964449
190	0x3fc57cbf227fe627	0.16786946472693495
191	0xbfd4c4528281cfb2	-0.3244825624926718
192	0xbfd3854fdfed4cfe	-0.30501171939722826
193	0x3fa0db5c88851e9c	0.03292359510902296
194	0xbfb6c89d7cf0bd44	-0.08899864483168068
195	0x3ff5bbe094b4de92	1.3583684738968356
196	0xbfc8bcf7c69e2c7c	-0.19326684187067034
197	0xbfc2682c33ac6f8c	-0.14380409739612465
198	0x3ff06ffdd3097ac6	1.0273416751512499
199	0x3fd773f651e59901	0.366452770211609
200	0xbfd770a10b1b644a	-0.3662493332354343
201	0x3fc47dd9b50a04d0	0.1600906499843746
202	0xbfd587ee59f0a66f	-0.3364215734787654
203	0x3fdfeb0dbbee4c5f	0.49872153618452403
204	0xbfe0217e0b38c9d1	-0.5040884226967198
205	0x3fb0f782812e618a	0.06627669957959462
206	0x3fbf890f86c051fe	0.12318512954545466
207	0x3fe85c3285df0a51	0.7612545599625468
208	0xbfc4c0d3436bdbc2	-0.1621345595555948
209	0xbfd385433bd35c54	-0.3050087055430073
210	0x3fd25a27c0b05178	0.2867526418424613
211	0xbfc92250ae7706b4	-0.19635971564098542
212	0xbfd689f31833fa5a	-0.3521697746618081
213	0x3f9557263b237af4	0.020840260848554018
214	0x3fdc9be51ca6738c	0.44701507375594285
215	0x3fc7ce2a736a6f86	0.18597918162856447
216	0x3fcfb6430fec0c2d	0.24774969365543723
217	0xbfe187ab67c35061	-0.5478112246150993
218	0xbfcffbf505e6e29a	-0.24987662113359904
219	0xbfccb1479a909646	-0.22416014716252358
220	0xbff081404c9f1b07	-1.0315554612186035
221	0xbfaf4c8e98a153fd	-0.06113095868264649
222	0xbfcb6bc2ad49e15c	-0.21422608815533806
223	0xbfd3eb629f93ea4c	-0.31124177535790376
224	0xbfe0f966640656d7	-0.5304443315132755
225	0x3fe32dd670e6b528	0.5993454175092312
226	0xbfe6580429f88bca	-0.6982441730254945
227	0xbfeb5e8e77e49410	-0.8552925435693641
228	0xbff04506a8764589	-1.0168520527407472
229	0xbfefac40617954c9	-0.9897767928875051
230	0xbfd57c8cd6fef4e0	-0.3357269382066317
231	0x3fd86d61e52c7ca6	0.38167617206813487
232	0x3fd80633dbc61ad2	0.37537857496537896
233	0xbfd2099106c20db8	-0.281833893394118
234	0xbfe28d12f01aad4e	-0.579720944360284
235	0x3ff7dfc21be57c78	1.4921284761146847
236	0x3fe93a7d60e69534	0.7883898632614206
237	0x3ff5430af02e7abb	1.3288678533642002
238	0xbfec31eb456d8000	-0.8810936313639104
239	0x3fe599ac3d45c1d9	0.6750088879326156
240	0xbfea8bd6fd957cdf	-0.829570288926245
241	0xbfd6733bcaeaeafc	-0.35078329864670343
242	0x3fd145857e7a401e	0.2698682532436595
243	0x3fe5aeab25e1db55	0.6775718440902475
244	0x3fe3820a304978d6	0.6096239989381285
245	0x3fd29ded075d2c8c	0.29088903159272017
246	0x3fe23d278e8199b2	0.5699651511502479
247	0x3fe925c0deccb0ff	0.785858569293424
248	0x3fd13b7b2b29d1a9	0.2692554399029868
249	0xbfe079118bce0552	-0.5147788744508637
250	0x3fe323d5fa7192be	0.5981244937398384
251	0x3fb61237678c96b5	0.08621546056800862
252	0xbfec7370ca4b6e25	-0.8890918685023662
253	0x3fe18bc04fdb4185	0.5483094749161387
254	0x3fd9a72f1f1488b2	0.4008291057126697
255	0x3fd7d7bab1b295ef	0.3725420699432495
